{
  "alexnet": {
    "summary": "Model: \"sequential\"\n_________________________________________________________________\nLayer (type)                 Output Shape              Param #   \n=================================================================\nconv2d (Conv2D)              (None, 96, 55, 55)        34944     \n_________________________________________________________________\nre_lu (ReLU)                 (None, 96, 55, 55)        0         \n_________________________________________________________________\nmax_pooling2d (MaxPooling2D) (None, 96, 27, 27)        0         \n_________________________________________________________________\nconv2d_1 (Conv2D)            (None, 256, 27, 27)       614656    \n_________________________________________________________________\nre_lu_1 (ReLU)               (None, 256, 27, 27)       0         \n_________________________________________________________________\nmax_pooling2d_1 (MaxPooling2 (None, 256, 13, 13)       0         \n_________________________________________________________________\nconv2d_2 (Conv2D)            (None, 384, 13, 13)       885120    \n_________________________________________________________________\nre_lu_2 (ReLU)               (None, 384, 13, 13)       0         \n_________________________________________________________________\nconv2d_3 (Conv2D)            (None, 384, 13, 13)       1327488   \n_________________________________________________________________\nre_lu_3 (ReLU)               (None, 384, 13, 13)       0         \n_________________________________________________________________\nconv2d_4 (Conv2D)            (None, 256, 13, 13)       884992    \n_________________________________________________________________\nre_lu_4 (ReLU)               (None, 256, 13, 13)       0         \n_________________________________________________________________\nmax_pooling2d_2 (MaxPooling2 (None, 256, 6, 6)         0         \n_________________________________________________________________\nflatten (Flatten)            (None, 9216)              0         \n_________________________________________________________________\ndense (Dense)                (None, 4096)              37752832  \n_________________________________________________________________\nre_lu_5 (ReLU)               (None, 4096)              0         \n_________________________________________________________________\ndense_1 (Dense)              (None, 4096)              16781312  \n_________________________________________________________________\nre_lu_6 (ReLU)               (None, 4096)              0         \n_________________________________________________________________\ndense_2 (Dense)              (None, 10)                40970     \n=================================================================\nTotal params: 58,322,314\nTrainable params: 58,322,314\nNon-trainable params: 0\n_________________________________________________________________",
    "layers": [
      "conv2d",
      "conv2d_1",
      "conv2d_2",
      "conv2d_3",
      "conv2d_4",
      "dense",
      "dense_1",
      "dense_2"
    ]
  },
  "lenet5": {
    "summary": "Model: \"sequential\"\n_________________________________________________________________\nLayer (type)                 Output Shape              Param #   \n=================================================================\nconv2d (Conv2D)              (None, 6, 28, 28)         156       \n_________________________________________________________________\nmax_pooling2d (MaxPooling2D) (None, 6, 14, 14)         0         \n_________________________________________________________________\nre_lu (ReLU)                 (None, 6, 14, 14)         0         \n_________________________________________________________________\nconv2d_1 (Conv2D)            (None, 16, 10, 10)        2416      \n_________________________________________________________________\nmax_pooling2d_1 (MaxPooling2 (None, 16, 5, 5)          0         \n_________________________________________________________________\nre_lu_1 (ReLU)               (None, 16, 5, 5)          0         \n_________________________________________________________________\nconv2d_2 (Conv2D)            (None, 120, 1, 1)         48120     \n_________________________________________________________________\nre_lu_2 (ReLU)               (None, 120, 1, 1)         0         \n_________________________________________________________________\nflatten (Flatten)            (None, 120)               0         \n_________________________________________________________________\ndense (Dense)                (None, 84)                10164     \n_________________________________________________________________\nre_lu_3 (ReLU)               (None, 84)                0         \n_________________________________________________________________\ndense_1 (Dense)              (None, 10)                850       \n=================================================================\nTotal params: 61,706\nTrainable params: 61,706\nNon-trainable params: 0\n_________________________________________________________________",
    "layers": [
      "conv2d",
      "conv2d_1",
      "conv2d_2",
      "dense",
      "dense_1"
    ]
  }
}